…
second of the computer camera.  After that , the detected 
images were sent to the model and the classes they belong to 
were queried.  As a result of the predictions, the possibility of 
belonging to which class the facial expression was shown on a 

 
Fig. 3. Propos ed CNN model diagram for  facial emotio n recognition . 
separate screen and the emotion in which class was higher was 
overwritten on the Haar Cascade  frame. This process was 
performed on every 30 frames that occurred every second of 
the camera image obtained in real tim e. 
TABLE I. SUMMARY  OF PROPOSED  CNN  ARCHITECTURE  
Layer (type)  Output Shape  Param #  
conv2d_1 (Conv2D)  (None, 64, 64, 20) 520 
activation_1 (Activation)  (None, 64, 64, 20) 0 
max_pooling2d_1 (MaxPooling2)  (None, 32, 64, 20) 0 
conv2d_2 (Conv2D)  (None, 32, 32, 50) 25050  
activation_2 (Activation)  (None, 32, 32, 50) 0 
max_pooling2d_2 (MaxPooling2)  (None, 16, 16, 50) 0 
flatten_1 (Flatten)  (None, 12800 ) 0 
dense_1 (Dense)  (None, 500) 6400500  
activation_ 3 (Activation)  (None, 500) 0 
dense_2 (Dense)  (None, 7) 3507  
activation_ 4 (Activation)  (None, 7) 0 
Total params: 6,429,577    
Trainable params: 6,429,577    
Non-trainable params: 0    
None    
*Conv2D: 2D Convolutional Layer , Maxpooling2: 2D Max pooling Layer  III. RESULT AND DISCUSSION  
In this study, Keras  and TensorFlow  libraries were used 
for training LeNet CNN architecture and prediction of 
emotion states with proposed deep learning model. Intel I7 
8300 CPU was used for all experiments and training custom 
…
